checkpoint.pth (torch_old, 28463 bytes, 6 tensors)

fc1.weight f4 [64, 37]
00000000: c5ca 4fbd 4258 713d b287 03bd 0b3a 72bc
00000010: 0252 3b3e 211d 023e 2d27 50bd f50c 863d
00000020: 84b1 8ebd 1387 61be 5045 25be 2ea7 06bd
00000030: 9d78 bbbd 84ba d7bb 2264 7cbd 0f30 153c
00000040: 48ee 7c3b 87f0 e23d ab50 943d 8db1 cb3d
00000050: 1e9b 083e eff2 443e c592 273d 2220 b93b
00000060: 99b4 293d 419f 923e 66c8 b0be 784c adbe
00000070: f79f b2be 3526 9bbf 67f1 1bbd 4c3a a43d
00000080: 06eb d83c 67f9 2bbb fb5e fabd 3999 35bd
00000090: f111 763c 8401 d53d 5ca6 073e 46b0 453d
000000a0: bbc1 f53d 94f3 053e 08a4 373e dd60 c3be
000000b0: 90ad f4bd 4670 20bf b190 c3bf 74d2 3f3d
000000c0: 84f8 553d df1a c8bc 9944 083e df32 b73d
000000d0: 59aa 083e 5784 ddbd ae8b ce3d 4e0a aa3c
000000e0: c131 5d3e 852b 70bd 0801 c5bd 8dbe 31be
000000f0: 0812 c03d 4e2b 733e 7e7e 19be cd23 e63d
00000100: 5899 1b3d 593f 263e 91af 2dbb 1ac6 8c3c
00000110: 957e 9c3d a43b b13d f238 1b3e 61c4 82bc
00000120: d145 6bbb 93ef c03b b7aa d1bd a140 753e
00000130: e837 883c 5e4f e73d 6d4b 4f3e bad6 3abf
00000140: ff04 b23d b19a bb3e 4e81 4d3e 09ac d7be
00000150: e3a1 95bc ef21 30be 3987 843d f2f9 7f3d
00000160: 55ea 8b3c 82ee 8cbe db3b 893e 3d76 083d
00000170: cebc 793e 0a19 5f3d 0f64 2ebe 56b4 9d3d
00000180: c6a0 af3d 704d d2bd 0f5a 49be f609 2dbe
00000190: cfe0 3f3e 827b 363e bd24 f8bc 916c 12be
000001a0: fdea 99be ce29 1bbe 6418 443e e09a 9bbe
000001b0: 6182 183d a244 8fbd b941 a4bc 357f 0e3d
000001c0: fffb 41bf 7f1b 7a3e 8bca cbbd e578 c8be
000001d0: 5dfe fcbe e296 b5bc 2e0f 173e 46c1 b43c
000001e0: bf41 b53d ce8a 633e b537 a2be 284a 1dbd
000001f0: f7c3 4ebf 7d7a 37bd 7e9c b8be 0926 843e
00000200: 344e 78bd 522d e0be 9517 73be b34c bf3d
00000210: f5cb 9abe b8a5 dfbd d5b0 24be bb24 99be
00000220: 1998 a8be 6354 99be 16dc fb3d b891 a33e
00000230: 3580 81be cc9e c83d 03aa 983e 029a 4fbd
00000240: 171b 51bf 249a df3c dbd2 803d 4898 8abd
00000250: aaec 43bd 67bd 13be d2e7 86be 38d1 6dbe
00000260: 0b67 05bd a071 1dbe 02cc 303e 6834 ad3d
00000270: ead9 31bc 7b5a 2bbe 7916 0f3e 2fd7 86be
00000280: 1974 85bc 3c3a 45be ec4a bdbe b4c4 25be
00000290: dd58 493c ce1b d1bd a143 abbb 76c2 a03e
000002a0: 7b37 51bd 2f73 cbbc 8fd7 ccbd a72d f33b
000002b0: 9475 773d cd9c c93c 8e02 bcbd ebf7 92ba
000002c0: a221 11be 6d4b 683d 12d3 3e3d cc88 84bd
000002d0: 7c63 6cbd 2f09 cfbc 0a38 c2bd 93d1 8e3e
000002e0: 0608 9a3d fb47 423c 313e f0bc 3379 703c
000002f0: f4e3 9c3d 351e ce3c 7a43 be3e 82ac dbbe
00000300: 1e15 edbe 56c3 96be bf08 e9bf 8a54 0fbd
00000310: f2c9 8fbc bde8 8b3b 6500 58bd ad32 573d
00000320: 9400 363d b560 343c 67b1 ea3b bd16 3abc
00000330: 57e0 283d af4d 7e3d 3fe3 ba3d 253e 143e
00000340: 3c67 243e 248f 7b3d 180d 633d 201e 513c
00000350: e87e 87bd f0b2 ad3d f176 c2bb 0a26 343d
00000360: 6c4a b33c cc2c 81bb e041 993d 8a59 be3d
00000370: 8d21 61bc d12e 463c 3856 dd3d bad8 cc3d
00000380: d29c f4bd 5d55 afbe a143 3b3c 55e0 58be
00000390: 98c8 a2bd 80b1 5dbd 7728 c43d 43d9 a2bc
000003a0: 6c16 5bbe f46a 7e3e 9f69 1e3d 725b 0fbd
000003b0: d5d3 043c b85d 44bd 1f6f 8f3d 3df2 d5bd
000003c0: 6e5b c6bd 5a36 74b7 bd2a 113e 9703 ddbe
000003d0: 0895 9f3c f315 b7be 2ef4 adbd 811e f9be
000003e0: 0fb8 abbd 9eb1 08be 561e e13d 1dda f5be
000003f0: e7ed 0c3e 0e14 1b3e c061 4dbe 1bde e6be
-0.050730485 0.05892206 -0.03211183 -0.014784346 0.18293002 0.12706424 -0.05081861 0.0654544
-0.06967452 -0.22024183 -0.16139722 -0.03287428 -0.091538645 -0.0065835137 -0.06161893 0.009105696
0.0038594175 0.11081033 0.07241949 0.099459745 0.13340423 0.19233297 0.040911455 0.0056495825
0.041431997 0.28637126 -0.34527892 -0.33847404 -0.34887668 -1.2121035 -0.038072016 0.08018932
0.026479255 -0.0026241185 -0.12225147 -0.044335578 0.015018926 0.1040068 0.13247055 0.04826381
0.11999842 0.13081199 0.17933667 -0.38159838 -0.11947167 -0.62671316 -1.5278531 0.046831563
0.052238956 -0.024426876 0.13307418 0.0894525 0.13346232 -0.108162574 0.100852355 0.020756867
0.21601011 -0.058635253 -0.09619337 -0.17357846 0.09378439 0.23746988 -0.14989659 0.11237297
0.037988037 0.16235103 -0.002650235 0.017184306 0.07641331 0.08653954 0.15158442 -0.015962781
-0.0035899768 0.0058879345 -0.102376394 0.23950435 0.01662822 0.11294435 0.20243616 -0.72983897
0.08692359 0.36641458 0.20068857 -0.4212344 -0.01826567 -0.17200445 0.06471104 0.062494226
0.017079512 -0.27525717 0.2680348 0.033315886 0.2438843 0.05446724 -0.17030357 0.07700412
0.08575587 -0.10268676 -0.19663261 -0.16898331 0.18738101 0.17820552 -0.030290956 -0.14299227
-0.30062094 -0.15152666 0.1914993 -0.30391598 0.037233714 -0.069955125 -0.02005087 0.034789283
-0.7577514 0.24424551 -0.099507414 -0.39154735 -0.49412814 -0.022166673 0.14751884 0.022064816
0.08850431 0.22220919 -0.31683126 -0.0384008 -0.8076777 -0.04479455 -0.36056894 0.2581027
-0.060621455 -0.43784577 -0.23739465 0.09340801 -0.30233732 -0.1092028 -0.16083081 -0.29910836
-0.3292854 -0.29947194 0.122978374 0.31947112 -0.25293127 0.09795913 0.2981721 -0.050683983
-0.8168196 0.02729518 0.062902175 -0.067673266 -0.047833122 -0.1442772 -0.2634874 -0.23224342
-0.032568973 -0.15375376 0.17265323 0.08457261 -0.010855177 -0.16733734 0.13973416 -0.26336047
-0.016290711 -0.19260496 -0.36971223 -0.16188318 0.012289253 -0.102103814 -0.005226568 0.31398362
-0.0510783 -0.024835197 -0.10002052 0.0074212137 0.060414866 0.024610901 -0.09180175 -0.0011212801
-0.14172986 0.056712557 0.04658801 -0.064714044 -0.057712063 -0.025272934 -0.09483345 0.27894267
0.075210616 0.011857982 -0.02932653 0.014677334 0.07660666 0.025160888 0.37160856 -0.4290505
-0.46305174 -0.29445904 -1.8205794 -0.034992732 -0.01755235 0.004269688 -0.05273475 0.052538563
0.044434145 0.011009385 0.0071622613 -0.01135796 0.041229572 0.062085804 0.09125375 0.14476831
0.16055006 0.061415806 0.05543241 0.01276353 -0.06616002 0.08481395 -0.005934589 0.04398159
0.021886073 -0.003942108 0.07483268 0.09294422 -0.013740909 0.012096123 0.108074605 0.10002275
-0.119439736 -0.34244815 0.011429698 -0.21179326 -0.079484165 -0.054124355 0.095780306 -0.01987899
-0.21395272 0.24845487 0.038674947 -0.03499932 0.008107145 -0.04794094 0.070036165 -0.10446594
-0.096854076 -1.4556188e-05 0.1417646 -0.431668 0.019480243 -0.35758933 -0.08493839 -0.48656085
-0.08384716 -0.13349006 0.10992114 -0.4801797 0.13762628 0.15144369 -0.2005682 -0.45091328

fc1.bias f4 [64]
00000000: f007 2f3e 97a9 f1bc 64a4 00be 7dc7 6dbd
00000010: 420e c63d 170b ee3c 1971 f7bd f63f ce3d
00000020: 25fe 3f3d d5ae 74be 90af 8c3e 77b2 523e
00000030: 7165 8c3d b9ff 693d 8f5b 2ebd f2ad b1bd
00000040: 30d3 323e f424 793d 76cc 0d3d f731 babd
00000050: 4d8f e1bd b6c6 583d 77ea 2c3e 2f81 d4bd
00000060: 7051 efbd 3e6d 143e 1daa c5bc 1eb3 81bd
00000070: 5465 553e 4488 dc3d 9379 4ebd 20a3 74be
00000080: 1407 523e 5e8e 023e f9e5 08be e4da 863d
00000090: a6ca 6ebc 908a 1c3d b05f 32bd d23b 5cbe
000000a0: 5fa5 e8bc 4159 b03d 8ef1 25bc 30e0 ae3e
000000b0: 5701 27bd 95e7 f0bc 256c 25bd 438e 46be
000000c0: d13a 75be 2e43 9a3d 67f7 d8bd 5068 ce3d
000000d0: dd51 20bd 2bdc aabd 285a 01be 3ca9 013c
000000e0: 096d a83d 95ba fabc e013 83bd f5ee 2fbe
000000f0: c245 b0bc 61e1 523b ba27 043e 38a7 ad3d
0.17092872 -0.029499812 -0.1256271 -0.058051575 0.09670688 0.029058022 -0.120821185 0.10070793
0.04687323 -0.23894818 0.27477694 0.20575891 0.06855286 0.05712864 -0.042567786 -0.086757556
0.17463374 0.060826257 0.034618817 -0.09091561 -0.110136606 0.05292388 0.16886316 -0.10376202
-0.11685455 0.14494798 -0.024128968 -0.06332992 0.20839435 0.10768178 -0.05040891 -0.23890352
0.20510513 0.12749621 -0.13368978 0.06584719 -0.014574682 0.03821808 -0.043548286 -0.21507195
-0.028399168 0.08610774 -0.010128392 0.34155416 -0.040772762 -0.029407302 -0.040386338 -0.19390206
-0.23948218 0.07532345 -0.10594063 0.1007849 -0.03914057 -0.08342775 -0.12632048 0.007913884
0.08223922 -0.030606547 -0.06400275 -0.17180999 -0.021517638 0.0032177793 0.1290578 0.0847916

fc2.weight f4 [64, 64]
00000000: 8d6a 6f3c fbf0 1e3e 32f1 333e 1619 6f3d
00000010: 3eed 013d fb0d 7cbd 1e9e b83d d43a cd3d
00000020: d147 873d 7d19 673d 5191 cc3b 9b3b f1bd
00000030: 29aa a73d 4689 603e b0ec 42be 38ac 883d
00000040: 4802 f53d 8008 203b bcfb a03c 985e 2e3e
00000050: 7a3c b4bd e36e a63c ee1e 713e 0f92 c8bd
00000060: dffd 023d fd3d c53d f5e8 213e b536 0c3e
00000070: b287 9abb fefe 0f3d b3fe 873d 96ea 94bd
00000080: 41c1 f73d 11b8 a5bd 7075 173e f4e7 033e
00000090: 209a 313d 427c 3f3c 0d89 bbbd bd75 69be
000000a0: 5119 3cbe a038 e53d 6243 b4bd 248c e53d
000000b0: fe52 5d3e 4fc0 c1bc a379 37be 88d4 973d
000000c0: fd5b 27bd ae29 1b3d 35d5 d13d 9d37 08bd
000000d0: 60c1 d1bd aeb8 87be 70c5 003e 1d1a d9bc
000000e0: d6f1 98bd c525 87be 8591 f33c 64e2 e63d
000000f0: 46cd 2d3e 9abf 0e3e 6d0d 47be 7b47 2d3e
00000100: f29f 6dbc 203b 3e3e 5ae2 44be c482 2b3e
00000110: ebb4 cbbd 763c 623e 50ee c73d 1be6 7a3d
00000120: ced7 5bbd e7f9 a0bd ec90 8dbc c37a a93e
00000130: db19 34be f3b5 dc3c 5394 5cbe ead4 bb3d
00000140: 4c41 ec3d 335f 823e 5cfe 38be 27c7 09be
00000150: e802 973c d71d 9dbe 2bb0 b83d 544d b2bc
00000160: acd3 82bd 8779 f53d 47da a4be 5c34 94be
00000170: 4e90 c93d 654e 7fbd dd01 b43d 32ea ccbe
00000180: 1b07 bcbd 04a0 87bd 947f 423d a0ee 19be
00000190: 9854 39be 37db 9fbd 98ae 4ebd 0d6c b2be
000001a0: 8212 323d 0221 433c 1cfe 463e c7a4 41be
000001b0: 51b4 8dbd 2193 0dbe 1855 2c3e 3954 b1bd
000001c0: f7c7 6bbd 36ae 94bd 622a 3dbe 3e04 503e
000001d0: fab6 cd3d bcb5 eebb 9bbe b2bd 1cc6 41be
000001e0: 4e2d eebd 3d30 87bd d7ee 1c3d accb b23e
000001f0: b863 43be aa48 36bc bb95 d4bd 1d63 7e3d
00000200: ed6e d93c bf76 8f3c 6b3b 153d 856f 273c
00000210: a52d 3ebd bd8e 093e bab9 393c 2f3c 3abe
00000220: cc12 aa3d e357 abbd 1b7e ed3c a868 8c3e
00000230: 6492 b83d dffc 6fbd 720b 4f3d 1276 88be
00000240: 2a25 2bbd 4195 333e fcfa f9bd 466f 6cbd
00000250: 668f 573d cb64 d83d e3fa 683d 0000 9cbc
00000260: 89bb 633d 11fc e93d d23e d83d 0b22 413e
00000270: e429 193e f2d0 083e 2e83 a2bd 40dd 36bd
00000280: 5411 fbbb 5800 a2bd ae9e c9bd 1831 ba3a
00000290: 502e 34bd 057f 373d 2bb7 343e bc1d 17bd
000002a0: 1e77 3a3e 2188 c0be 4ec7 cc3d 4161 c4bd
000002b0: 318d b2bd dd39 10bd fb64 743d 2ea6 4d3d
000002c0: f91f 4a3e af5b 953c f2db 96bd 5b01 043e
000002d0: f824 85bc dab0 323e 14e0 94bd 7115 113c
000002e0: 0955 a3bd d393 51be 2144 e7bc 6f78 d73d
000002f0: 3d67 b33d bcb3 ba3d 6f39 8d3e 5f3d 9f3d
00000300: 2d9e 00be 2173 633d e58a c93d ace6 34be
00000310: 48fa 82bd 56e9 05be b007 a4bd 8d55 0dbf
00000320: f596 3bbe 6adf 18be dea5 06bd 9be2 e0bd
00000330: 4ff1 32bd 7374 bc3c f0f0 6ebe a9ec 03be
00000340: 30fe b7bd 3122 c73c e19a 8d3d ebcb e63c
00000350: 1443 50bd af8a 213e e258 7fbd 165a 86bd
00000360: ec53 ad3e 08ed 0b3d a273 633e 00b1 eabd
00000370: 2ebc fe3d df14 41be 4105 94bd a05e 41bd
00000380: d642 9bbd ced4 c3be 6cca d9bc e59b 9d3d
00000390: 8f3d 2bbe 1276 563c ddf0 49be 5fae 38bc
000003a0: 1b51 24be c0ea c33e 157c 573e 09e0 adbd
000003b0: 8abd 52be 362b 4ebd f565 12bd 7c86 60be
000003c0: b227 f83b 63ea 173e 227a 13bf 90d0 b63d
000003d0: 8c9a dc3d 69e2 3e3c 6109 71be 8992 e23d
000003e0: 8f9e 88bd 2ef7 d23c 3b65 94bd 1438 b03c
000003f0: 2a87 73be 1a2a 41bb 3698 24be 5c4e 6abe
0.014612806 0.15521614 0.17572477 0.058373533 0.031720392 -0.06153677 0.090145335 0.10020986
0.06605495 0.056420792 0.006242909 -0.11778947 0.08186752 0.21927366 -0.19035602 0.06673473
0.11963326 0.002441913 0.019651286 0.17028272 -0.088005975 0.020316547 0.23546955 -0.097934835
0.03198039 0.09630964 0.15811522 0.13692744 -0.004715883 0.03515529 0.06640377 -0.07271306
0.12097407 -0.080917485 0.14790893 0.12881452 0.043359876 0.01168734 -0.09157 -0.2279882
-0.18369032 0.11192441 -0.08801915 0.1120837 0.2161369 -0.02365127 -0.17917494 0.07413584
-0.04085921 0.037881546 0.10245744 -0.033256162 -0.102419615 -0.26508087 0.12575316 -0.02650171
-0.074680015 -0.26396003 0.029732475 0.11273649 0.16972837 0.13940278 -0.19438715 0.16921799
-0.014503466 0.18577242 -0.19226971 0.16749102 -0.09946617 0.22093377 0.097622514 0.061254602
-0.053672604 -0.07860165 -0.017281018 0.33101472 -0.17587988 0.026942229 -0.21540956 0.091714695
0.11535892 0.25463256 -0.1806578 -0.13454877 0.018434003 -0.30686828 0.090179764 -0.021765389
-0.063880295 0.1198607 -0.32197782 -0.28946197 0.09841977 -0.062330622 0.08789418 -0.40022427
-0.09181043 -0.066223174 0.04748495 -0.15032434 -0.18098676 -0.07805484 -0.050459474 -0.3484806
0.04347468 0.011909725 0.19432873 -0.18910514 -0.06919158 -0.13825656 0.16829336 -0.08658642
-0.05756375 -0.072597906 -0.18473199 0.20314118 0.10044666 -0.007284848 -0.08727761 -0.18923229
-0.11629735 -0.066009976 0.038313713 0.34921014 -0.19081008 -0.011125723 -0.10380121 0.06210624
0.026542151 0.017512677 0.03643362 0.010219459 -0.04643025 0.13433357 0.011335785 -0.1818702
0.083043665 -0.083663724 0.028990796 0.27423596 0.09012297 -0.058590766 0.050548024 -0.2665258
-0.04178349 0.17537405 -0.122060746 -0.057723306 0.05262699 0.105661 0.05687989 -0.019042969
0.05559877 0.11425031 0.10558857 0.18860643 0.14957386 0.13360956 -0.07935177 -0.044644594
-0.007661978 -0.07910222 -0.09844719 0.0014205305 -0.04398948 0.04479887 0.17647998 -0.03689359
0.18209502 -0.37603858 0.09998952 -0.09588862 -0.087183364 -0.035211433 0.059666615 0.05020731
0.19738759 0.018232195 -0.0736617 0.12891142 -0.01625298 0.17450276 -0.07269302 0.00885521
-0.079752035 -0.20466547 -0.028230729 0.10521018 0.087599255 0.09116313 0.2758288 0.077753775
-0.1256034 0.055529717 0.09840945 -0.1766612 -0.063953936 -0.13077292 -0.08009279 -0.55208665
-0.18319304 -0.14928976 -0.032873027 -0.109807216 -0.04368716 0.023004746 -0.23334098 -0.12883247
-0.08984029 0.024308296 0.069143064 0.028173408 -0.05084522 0.1577556 -0.062340625 -0.06560151
0.3385309 0.034161597 0.22212079 -0.11459541 0.12438236 -0.18855618 -0.072275646 -0.047209382
-0.07581107 -0.38248295 -0.02658578 0.0769575 -0.16722701 0.013089674 -0.19720788 -0.011272042
-0.16046564 0.38265038 0.21043427 -0.08489997 -0.20580116 -0.050334178 -0.035741765 -0.21926302
0.0075730914 0.14835505 -0.57608235 0.08926499 0.10771665 0.01165066 -0.23538734 0.110631056
-0.06670868 0.02575263 -0.07245871 0.021511115 -0.2378203 -0.0029474557 -0.16073689 -0.22881454

fc2.bias f4 [64]
00000000: 9638 c03e a8f9 86bd c789 3f3e 0f5c 2abd
00000010: eed6 043e bd8b 8cbd 912b 143d c85f 89bd
00000020: b88a c53d 0814 f63e 1508 8f3c d7b0 8f3e
00000030: 1b9a ea3e 315b debd 8727 9cbd a329 233d
00000040: fb90 8fbc ad50 9f3c a770 1fbe 9ae0 2d3e
00000050: ef9e 2d3e 84c8 4a3e 2148 1abe d349 e7bd
00000060: e969 563d 6634 0dbe e01d 4f3d 752b d23c
00000070: ee16 4bbc 6f9d de3d e728 4d3d 277c 8bbd
00000080: 4a36 2abd 74ef 033e 71ea 3c3c eb32 ecbd
00000090: 6bdd 08be 71bd b3bd a576 ef3e ec32 2c3d
000000a0: d8d3 02bd 25fd 223f 6b99 813c 2d13 18be
000000b0: 0beb aaba 4169 0cbe 0e72 c63e a168 78bb
000000c0: c4aa 503d 3360 243c 744a a7bc ec62 863e
000000d0: 529a 6cbd b490 1abe dff7 173e 30b9 40be
000000e0: 8623 4bbe e6a5 0dbe 1429 603d ebf5 f4bd
000000f0: 28fb 263d 9ccd 943e ced4 ad3d f6ea 2e3d
0.37543172 -0.06590587 0.18704902 -0.0415917 0.12972614 -0.068625905 0.03617436 -0.06707722
0.09645599 0.48062158 0.017459909 0.28064606 0.45820698 -0.10857237 -0.07624727 0.03983463
-0.017525187 0.019447649 -0.15570317 0.1698021 0.1695516 0.19803053 -0.15066577 -0.11293378
0.052347098 -0.1378952 0.0505656 0.025655488 -0.012395604 0.10869872 0.050087836 -0.068107896
-0.04155568 0.12884313 0.011530505 -0.11533149 -0.13365714 -0.087763675 0.46770206 0.04204075
-0.03194031 0.6366752 0.015820226 -0.14851065 -0.0013040019 -0.13712026 0.38758892 -0.003790416
0.050944105 0.010032701 -0.020421244 0.26247346 -0.05776436 -0.15094262 0.14840649 -0.18820643
-0.1983777 -0.13832816 0.054726675 -0.11960968 0.040766865 0.29063118 0.08487855 0.042704545

fc3.weight f4 [4, 64]
00000000: 75b9 903d 283f 5abc a275 e83d a300 61be
00000010: eb28 343f 8aa1 823e 7014 313e aab1 1dbe
00000020: 6b64 8a3e d0d3 363e 1ad3 a53d e129 693e
00000030: 1900 0a3e b9b5 1a3e 3050 1cbd e638 6b3e
00000040: 038c 51bc 8f6b ca3d a93e acbe df2a 103e
00000050: d157 973d 956c 9b3e 644c 19bd 435c 21be
00000060: 363a d73d fff9 11be 2103 43be 932b 8abe
00000070: 9b36 2ebe d114 213d 244d 94be c73d 27bd
00000080: 0093 1c3d 3131 bb3d 23b4 a73e 20cf d9bd
00000090: d7cd 12be 74f8 fabe 15f9 493e 4aa0 843e
000000a0: 3a54 c73d 6e06 493e ab54 e13e d975 603e
000000b0: 9564 1f3e 8b4d 02be 0dbd 6c3e 3cf9 9d3e
000000c0: e50b 7b3d 8f7e 9f3e 8fb2 993e 8b18 db3e
000000d0: cf5d 5f3e d1f6 ebbd 4dd9 6a3d 5aa7 92bd
000000e0: 1c3b b6be 871c 93bd dfcd d73d 9df8 a03e
000000f0: c34c 9fbc 0963 e53d 7ad2 9e3c 41cb 2d3e
00000100: 8b01 603e f7a4 9bbd 6e0b 533e dc6d 93bc
00000110: 82a2 e13e 8d62 a03e 6ee5 533e 4726 1dbe
00000120: 8055 6f3e 31e6 f93d 5bb2 363e 0707 383e
00000130: 42bf a93d 8e91 cb3d f53b 91bb 5719 d63e
00000140: 5a19 ebbd 6b47 e73d 1f91 75be 3559 8c3d
00000150: 1026 063e 5e65 a63e 8387 0bbd 485e 84bd
00000160: 3263 b73d 8de8 64be a821 f2bd eb68 0b3e
00000170: 67d4 b6be 55e8 003e 248b 8a3d d3b7 f53d
00000180: 01da 463e 4406 943d c31e d73e d486 5bbe
00000190: e83a d1bd 333a 2bbe 4cd9 1b3e a18e 943e
000001a0: 84e5 763d 0d82 553e b066 f63e e165 783e
000001b0: 5dcc 0d3e 7dd2 46bd 0569 313e d5d4 af3e
000001c0: 9c29 e43d 4a31 883e e7cc b73e 5ee4 b03e
000001d0: c30f b23e 1277 3b3e 74be 273e 8369 9fbd
000001e0: 167a 0bbe 0b90 ff3c 4ebc 3f3e 994c 17bf
000001f0: 1da6 c53c ae24 713d 9348 bfbe 03bf 1d3e
00000200: fdc8 de3d f2d9 693e 9ded cf3c 9eae 05be
00000210: 9821 163f 88ae d23d 5634 473e 6658 8fbe
00000220: 4dc4 013e d8a7 f33d 8319 1d3e 103c 8a3e
00000230: 6f51 623e 1c6a babe 665c 98bd a68f 543f
00000240: 454c bf3c 422d b43d 3347 3abe d8dd 503d
00000250: bf44 61bd dc19 543e f071 d0be 6762 6d3d
00000260: 87b2 303e d0cc bfbc 24bf 5abd f761 90bc
00000270: 2b5e 873e 5b8c 733e 0a12 253e 003d 153e
00000280: 7479 32be 0a02 9ebd e015 d23e 79d3 733e
00000290: da72 c4bd 639c d1be 9d09 2d3e 08f7 cb3e
000002a0: e35b 263e 9ec4 743e 08af 923e 955d 98be
000002b0: 3dc6 fe3d 91bf c8bd ec19 0c3e db3f b33e
000002c0: 0969 b63e a877 ef3c 1c68 443e 80c0 a23e
000002d0: a0a0 90be 545b 2cbe ec5e 333e ef4c b93c
000002e0: df2c 1bbe b152 29bd 663c 433e 39e1 3c3d
000002f0: 95a7 37bc 54b6 e33d 0a95 7d3e 0c0d e53d
00000300: a7a6 4c3e dbd1 6e3e 9f1f bf3d bbb7 b7be
00000310: 70ce a43e d508 873e 077f c93d ee09 2bbd
00000320: eaa8 883e 51be 373e 38d5 943e cb37 d93d
00000330: fdac 393e dcbf e3bd 00be 723d 0055 81be
00000340: 1e9c 013e 9bb7 5d3e 627e bcbd cfed cd3d
00000350: 0017 8a3d 616c 063f dbac 123d c4a2 2b3e
00000360: a3a2 da3d fd86 8abe 56f8 a7bd 625a febe
00000370: c905 963e 3492 883c 4fb1 0cbe 007d b13e
00000380: bc26 fdbe ab02 433e 5b14 513e 4548 68be
00000390: db92 e8be 79cf 2cbd 58d5 663e fcc3 1f3e
000003a0: 122f 48be 488f 413e d27d c63e f2c6 57be
000003b0: bf13 943e 3d75 88bd 9ca5 fb3d eeca 9e3d
000003c0: f76b 9c3d 9221 8dbd 77af 0b3f a2b5 0e3e
000003d0: 38dd e73e 2d8b 1bbe e9c5 b53d c7a5 ad3e
000003e0: 8616 36be 2b19 d5be a042 133e f45e a4be
000003f0: a418 aabe 0f93 883c 2b85 cd3e d18b 2f3e
0.07066623 -0.013320722 0.11350562 -0.21972899 0.70374936 0.2551387 0.17292953 -0.15399805
0.27029738 0.17854238 0.08096905 0.22769882 0.134766 0.15108384 -0.03816241 0.22970924
-0.012789729 0.098837964 -0.33641556 0.14078854 0.073897965 0.3035628 -0.037426367 -0.15757851
0.1050915 -0.14255522 -0.19044162 -0.2698637 -0.17013018 0.039326493 -0.28965104 -0.0408304
0.038226128 0.09140242 0.3275462 -0.10635209 -0.14336334 -0.4901768 0.19723924 0.2590354
0.09732862 0.19631359 0.4400991 0.21919955 0.15565713 -0.12724893 0.23118992 0.30854213
0.06129064 0.31151244 0.30019042 0.42792162 0.21813129 -0.11521686 0.05733614 -0.07160826
-0.35591972 -0.071831755 0.10537314 0.31439677 -0.019445783 0.1120053 0.019387472 0.16972066
0.21875589 -0.07599824 0.20609829 -0.017996721 0.44069296 0.31325188 0.20692989 -0.15346633
0.2337246 0.12202109 0.17841475 0.1797143 0.08288433 0.09939872 -0.0044321963 0.41816208
-0.11479445 0.11292919 -0.2398114 0.068529524 0.13100457 0.32499212 -0.03406478 -0.06463295
0.08954467 -0.22354336 -0.11822826 0.13614242 -0.35708925 0.12588628 0.0676482 0.11997952
0.194191 0.072277576 0.42015657 -0.21438152 -0.102163136 -0.1672142 0.15219611 0.29015067
0.060277477 0.20850392 0.4812522 0.24257614 0.1384749 -0.04854058 0.17325218 0.34342065
0.11140749 0.26600105 0.35898516 0.3454923 0.3477765 0.1830714 0.16381246 -0.07783797
-0.13620791 0.031196615 0.18724176 -0.59101254 0.02412706 0.05887287 -0.37360057 0.15404896
0.10878179 0.22837046 0.025381858 -0.13054892 0.5864501 0.102871954 0.19453558 -0.2799713
0.12672539 0.11897248 0.15341763 0.2699895 0.22101377 -0.3640908 -0.074394986 0.8303169
0.023351798 0.08797695 -0.18191223 0.050992817 -0.054997202 0.2071299 -0.40711927 0.057955172
0.17255603 -0.023413092 -0.053404942 -0.017624838 0.26439032 0.2378401 0.16120163 0.14574051
-0.17429143 -0.07715233 0.41032314 0.23811139 -0.09592219 -0.40939626 0.16898198 0.39836907
0.1624599 0.23903129 0.28649163 -0.29758897 0.12440155 -0.098021634 0.13681763 0.35009655
0.3562701 0.029231861 0.1918034 0.3178749 -0.28247547 -0.16831714 0.17516679 0.022619693
-0.15153836 -0.041338626 0.19066009 0.046113227 -0.011209388 0.11118761 0.24763885 0.11184129
0.19985448 0.23322241 0.09332203 -0.35882363 0.3218875 0.26373926 0.09838682 -0.041757517
0.2669137 0.17943694 0.29068923 0.10606345 0.18132396 -0.11120579 0.05926323 -0.25260162
0.1265721 0.21652071 -0.09203793 0.10055124 0.06742668 0.52509123 0.03580938 0.16761309
0.10675552 -0.27056113 -0.08201663 -0.49678332 0.2930129 0.016671278 -0.13739513 0.3466568
-0.49443614 0.19043986 0.20417921 -0.22683819 -0.45424542 -0.04219005 0.22542322 0.15602106
-0.19549206 0.18902314 0.38767868 -0.21071985 0.28921315 -0.066629864 0.12287447 0.077535495
0.0763778 -0.06891169 0.54564613 0.13936475 0.45285964 -0.1518981 0.08875639 0.3391554
-0.1778203 -0.41620764 0.14380884 -0.32103693 -0.33221924 0.016671686 0.40140662 0.1714318

fc3.bias f4 [4]
00000000: 19c7 b33e 6694 9c3e 2adf 8d3e 566a 8d3e
0.35112837 0.3058197 0.27709323 0.2762019
